TensorFlowCode/model.tflite (tflite, 342816 bytes, 10 tensors)

unknown_18 f2 [64]
000000 cf 20 8f 98 e6 22 66 23 c0 20 1a 23 30 03 a9 12
       0.00939 -0.002226 0.01347 0.01445 0.00928 0.01387 4.864e-05 0.000813
000010 a5 1d 43 1e 9b 24 cd 21 97 20 13 9d 88 1d bc 20
       0.005512 0.006115 0.01799 0.01133 0.008965 -0.004955 0.0054 0.00925
000020 0e 21 99 1f 2a 14 77 1f 84 23 95 1f c6 24 7f 20
       0.00987 0.00742 0.001017 0.00729 0.01468 0.007404 0.01865 0.00878
000030 9d 1c fa 09 74 24 8f 1c d7 1a da 94 03 92 66 22
       0.004505 0.0001824 0.0174 0.00445 0.00334 -0.001184 -0.000734 0.0125
000040 78 24 08 24 20 25 49 25 22 20 3f 92 c1 1e fd 11
       0.01746 0.01575 0.02002 0.02065 0.00807 -0.0007625 0.006596 0.000731
000050 88 1d 07 18 1c 23 d4 25 6e 24 66 21 30 20 02 24
       0.0054 0.001966 0.013885 0.02277 0.0173 0.010544 0.00818 0.01566
000060 4e 20 cf 19 4f 1f 16 24 5d 1c e4 1f b9 22 12 1a
       0.00841 0.002836 0.007137 0.01596 0.00426 0.007706 0.01313 0.002964
000070 55 23 67 22 7d 22 84 9c 6b 1c 3e 1f b2 20 50 22
       0.01432 0.012505 0.01267 -0.00441 0.004314 0.007072 0.00917 0.01233

unknown_20 f2 [10]
000000 05 1e bb 1b 46 94 f7 1d 91 19 68 19 7d a0 a7 1b
       0.00588 0.003775 -0.001043 0.005825 0.002718 0.00264 -0.008766 0.003736
000010 28 18 2a a4
       0.00203 -0.01627

functional_1/tf_op_layer_Relu/Relu;StatefulPartitionedCall/functional_1/tf_op_layer_Relu/Relu;functional_1/batch_normalization/FusedBatchNormV3;StatefulPartitionedCall/functional_1/batch_normalization/FusedBatchNormV3;unknown_0;functional_1/conv2d/BiasAdd;StatefulPartitionedCall/functional_1/conv2d/BiasAdd;functional_1/conv2d/Conv2D;StatefulPartitionedCall/functional_1/conv2d/Conv2D f2 [32]
000000 79 34 61 35 cf 35 08 32 cf 33 4e 36 26 1e f1 21
       0.2795 0.3362 0.363 0.1885 0.244 0.394 0.006004 0.011604
000010 c7 35 bb 35 1c 20 92 26 0e 34 27 34 1a 33 62 b6
       0.361 0.3582 0.008026 0.02567 0.2534 0.2595 0.2219 -0.399
000020 d7 37 3c b1 9f a4 77 28 31 35 d2 ad 8a b6 30 34
       0.49 -0.1636 -0.01805 0.03488 0.3245 -0.09094 -0.4087 0.2617
000030 07 34 50 2f 06 22 2e b6 6a 2d 5c a8 27 29 5b 31
       0.2517 0.11426 0.011765 -0.3862 0.0846 -0.03406 0.04025 0.1674

functional_1/tf_op_layer_Relu_1/Relu_1;StatefulPartitionedCall/functional_1/tf_op_layer_Relu_1/Relu_1;functional_1/batch_normalization_1/FusedBatchNormV3;StatefulPartitionedCall/functional_1/batch_normalization_1/FusedBatchNormV3;unknown_6;functional_1/conv2d_1/BiasAdd;StatefulPartitionedCall/functional_1/conv2d_1/BiasAdd;functional_1/conv2d_1/Conv2D;StatefulPartitionedCall/functional_1/conv2d_1/Conv2D f2 [64]
000000 d6 36 07 3a 97 37 aa 38 89 ae d6 39 41 35 e9 38
       0.4272 0.7534 0.4744 0.583 -0.1021 0.7295 0.3284 0.614
000010 be 31 41 38 1b 39 ed 39 d9 3a 07 38 7d 3a 28 38
       0.1794 0.5317 0.638 0.7407 0.856 0.5034 0.811 0.5195
000020 63 38 db 38 c0 39 04 38 56 39 95 38 20 39 72 39
       0.5483 0.607 0.7188 0.502 0.667 0.5728 0.6406 0.6807
000030 10 ae 3b 37 1b 38 42 39 3c 36 2b 39 38 35 07 36
       -0.0947 0.452 0.513 0.657 0.3896 0.646 0.3262 0.3767
000040 fa 37 2c 37 dc 36 8b 39 34 3a d0 39 09 38 c5 35
       0.4985 0.4482 0.4287 0.693 0.7754 0.7266 0.5044 0.3606
000050 88 36 cb 34 b6 36 08 39 9c 34 cc 3b fc 35 8b 39
       0.4082 0.2996 0.4194 0.629 0.288 0.9746 0.374 0.693
000060 3f 38 dc 35 af 38 0c 3b 1b 36 a6 39 dd 36 8b 3a
       0.531 0.3662 0.5854 0.881 0.3816 0.706 0.429 0.818
000070 5d 32 24 38 c8 34 db 36 c2 37 56 37 47 34 56 36
       0.1989 0.5176 0.2988 0.4285 0.4849 0.4585 0.2673 0.396

functional_1/tf_op_layer_Relu_2/Relu_2;StatefulPartitionedCall/functional_1/tf_op_layer_Relu_2/Relu_2;functional_1/batch_normalization_2/FusedBatchNormV3;StatefulPartitionedCall/functional_1/batch_normalization_2/FusedBatchNormV3;unknown_12;functional_1/conv2d_2/BiasAdd;StatefulPartitionedCall/functional_1/conv2d_2/BiasAdd;functional_1/conv2d_2/Conv2D;StatefulPartitionedCall/functional_1/conv2d_2/Conv2D f2 [128]
000000 80 3c 5c 3c 35 38 58 3d 92 bc 39 bd 69 39 01 3c
       1.125 1.09 0.526 1.336 -1.143 -1.306 0.6763 1.001
000010 91 b0 22 36 f5 2b b3 bc 14 bf f0 36 06 35 d0 3c
       -0.1427 0.3833 0.06216 -1.175 -1.77 0.4336 0.314 1.203
000020 fa 3d 2a 3a 68 38 a4 b8 99 37 55 30 71 33 72 2c
       1.494 0.7705 0.551 -0.58 0.4749 0.1354 0.2325 0.06946
000030 f1 ab 5f 39 0d b6 60 3a dd 30 0a 39 98 24 cf b8
       -0.06204 0.6714 -0.3782 0.797 0.152 0.63 0.01794 -0.601
000040 1e 1a 32 3d 40 3e 60 32 4c 3a be 3f f8 3c 6f 36
       0.002987 1.299 1.5625 0.1992 0.787 1.936 1.242 0.402
000050 47 b3 fd 38 9d 37 d6 3a fd 3d 83 3c 3f 3f 7d 3e
       -0.2274 0.6235 0.4758 0.8545 1.497 1.128 1.812 1.622
000060 bf 38 80 2e cc 3c 1e 40 8f b1 66 ac 96 26 bc 32
       0.5933 0.10156 1.199 2.059 -0.1737 -0.0687 0.02573 0.2104
000070 b0 32 20 40 d4 3c 91 38 83 2a 99 ac d9 38 f8 3a
       0.209 2.062 1.207 0.571 0.05087 -0.07184 0.606 0.871
000080 cd 39 31 33 e8 32 5d af e8 af 40 3c 2e 1b 8b 3c
       0.725 0.2247 0.2158 -0.11505 -0.12354 1.0625 0.003506 1.136
000090 53 3b 6a 32 18 b5 96 24 59 28 28 32 eb 3c c2 3a
       0.9155 0.2004 -0.3184 0.01791 0.03397 0.1924 1.2295 0.8447
0000a0 c3 3f 65 b4 41 38 20 35 6f 38 45 38 8d 3e 66 35
       1.94 -0.2747 0.5317 0.3203 0.554 0.5337 1.638 0.3374
0000b0 ad 3c b9 3a b6 31 5e b4 49 39 5d 38 84 3c 40 34
       1.169 0.8403 0.1785 -0.273 0.6606 0.5454 1.129 0.2656
0000c0 28 39 98 b3 25 b8 d6 3d de 3e 9a 3a 6d b3 e7 36
       0.6445 -0.2373 -0.518 1.459 1.717 0.825 -0.232 0.4314
0000d0 1b 3b ea 37 8e aa 9b b4 c5 b6 0b 40 fa 33 31 40
       0.888 0.4946 -0.0512 -0.2878 -0.423 2.021 0.2493 2.096
0000e0 f4 a9 cf 34 e2 b0 9c 2e cc 37 ce bb ea b9 35 3b
       -0.0465 0.3005 -0.1526 0.1033 0.4873 -0.9756 -0.7393 0.901
0000f0 b9 3c 36 2d b1 ae 23 33 2c 31 74 39 aa 39 00 3c
       1.181 0.0814 -0.10455 0.223 0.1616 0.6816 0.708 1.0

functional_1/dense/MatMul;StatefulPartitionedCall/functional_1/dense/MatMul f2 [64, 1152]
000000 de 2e 28 a5 b3 a9 1e 2b 3b 2c 2a 29 ad 27 d1 2b
       0.1073 -0.02014 -0.04453 0.0556 0.0661 0.04034 0.02998 0.06107
000010 bd a8 88 2c 7d 22 ab 29 f9 a9 f4 2c da ae 0f 2a
       -0.03702 0.0708 0.01267 0.04428 -0.04666 0.0774 -0.10706 0.04733
000020 bd 26 6a 9a 8b 1c 94 a9 5f a4 61 2c 98 20 47 2c
       0.02632 -0.003132 0.004436 -0.04358 -0.01707 0.0684 0.00897 0.06683
000030 7f 28 7b a8 a1 2a 7a a8 fd 26 43 ab 0b a8 a0 22
       0.03513 -0.035 0.0518 -0.03497 0.0273 -0.05673 -0.0316 0.01294
000040 77 29 92 28 15 29 0b 1a 42 2d 9c 2c d9 9e 55 1d
       0.0427 0.0357 0.0397 0.00295 0.08215 0.072 -0.006687 0.005207
000050 c1 a0 d9 a4 2e 2f b9 26 9e 21 46 2c eb ae 73 a5
       -0.009285 -0.01894 0.1122 0.02626 0.01097 0.0668 -0.1081 -0.02129
000060 18 25 26 2c e2 a4 3c 27 2e 1e 37 1a 30 ac 86 2e
       0.0199 0.0648 -0.01907 0.02826 0.006035 0.003035 -0.0654 0.1019
000070 b7 2a 29 94 b5 20 cf a8 12 2b 6f 2c ba 21 85 28
       0.05246 -0.001016 0.00919 -0.03757 0.05524 0.0693 0.011185 0.0353
000080 45 2d 83 30 b6 26 6f 29 58 2b 98 22 8e a7 5d 9a
       0.08234 0.141 0.02621 0.04245 0.05737 0.01288 -0.02951 -0.003107
000090 dc 2d 42 29 ce 25 af 29 13 a9 6c 2d 95 a9 5a a2
       0.09155 0.04108 0.02267 0.0444 -0.03964 0.0847 -0.0436 -0.012405
0000a0 d4 a1 62 29 17 aa 1b ab bd ac 2e ad e1 a9 2b a0
       -0.01138 0.04205 -0.04758 -0.0555 -0.07404 -0.08093 -0.04593 -0.00814
0000b0 ab 24 27 2a f0 2c 21 a2 d9 a8 cc 2b 45 ac e0 a9
       0.01823 0.04807 0.07715 -0.01197 -0.03787 0.0609 -0.0667 -0.0459
0000c0 4d 2d 38 16 05 a6 da 2c 5a a5 3a 2b b8 2e 95 ac
       0.0828 0.001518 -0.02351 0.0758 -0.0209 0.05646 0.105 -0.0716
0000d0 2a 28 e2 a9 f4 16 00 28 97 ad fe 29 92 a9 c8 a8
       0.03253 -0.04596 0.001698 0.03125 -0.08734 0.0468 -0.04352 -0.03735
0000e0 ff a9 1e 9b 30 25 e5 ac af ab 0f 20 63 2c 21 2e
       -0.04684 -0.003475 0.02026 -0.0765 -0.06003 0.00793 0.06854 0.09576
0000f0 51 a8 47 24 cf 29 d1 27 62 a8 9f 2a 78 ae 0b 2e
       -0.03372 0.01671 0.04538 0.03053 -0.03424 0.05173 -0.1011 0.0944
000100 66 2c 00 a9 2b 22 69 ad f9 a4 ea a9 dd a7 63 a4
       0.0687 -0.03906 0.01205 -0.08453 -0.01942 -0.0462 -0.03072 -0.01714
000110 11 a8 3c 2c 18 a4 b4 26 7a 2e aa 29 9b a7 1b a0
       -0.03177 0.06616 -0.01599 0.02618 0.1012 0.04425 -0.02971 -0.00802
000120 a3 ac b2 20 44 29 99 27 6c 29 fc 21 df ac 55 21
       -0.07245 0.00917 0.04114 0.02968 0.04236 0.01169 -0.0761 0.010414
000130 a2 a6 4b 2d 2a 2d e7 a6 9a 2e 23 2c 17 2d 1a 2b
       -0.02591 0.0827 0.0807 -0.02696 0.10315 0.06464 0.0795 0.05548
000140 91 2c aa 2a 22 a9 13 2e a7 2d 85 20 0b 2c 19 ad
       0.07135 0.05206 -0.0401 0.0949 0.0883 0.00883 0.0632 -0.07965
000150 c2 2d 3b a6 81 21 53 1a 7b 26 e2 2d 84 ad fe a5
       0.08997 -0.02434 0.01075 0.003088 0.02531 0.0919 -0.0862 -0.0234
000160 0d 2a 49 a8 66 28 3b 28 14 aa 7e a6 1a a9 41 a6
       0.04727 -0.03348 0.03436 0.03305 -0.0475 -0.02536 -0.03986 -0.02443
000170 1c a5 bb ac fa 25 84 a2 ec a0 29 29 4e a9 5c 2a
       -0.01996 -0.0739 0.02335 -0.012726 -0.00961 0.0403 -0.04144 0.04968
000180 45 a7 3f 2d 41 28 13 a8 1f 9f c0 ab a1 28 8a 2e
       -0.0284 0.082 0.03323 -0.03183 -0.006954 -0.06055 0.03616 0.1022
000190 24 aa d2 a3 91 ac 7b 2a 59 2c 2e 29 db a4 2b 24
       -0.04797 -0.015274 -0.07135 0.05063 0.06793 0.04047 -0.01897 0.01628
0001a0 8f 24 84 29 a6 2a 52 a0 c7 24 8c 2e f5 a9 52 2e
       0.0178 0.0431 0.05194 -0.00844 0.01866 0.1023 -0.04654 0.09875
0001b0 7f ad 6f ad 92 2b bb a6 0a 18 6f a2 7b 0f e3 24
       -0.0859 -0.0849 0.05914 -0.02629 0.001972 -0.012566 0.0004566 0.01909
0001c0 7e a1 24 1e d9 2e cb 20 0a aa 08 2b 8c 9a 4f a7
       -0.01073 0.005997 0.107 0.00936 -0.04718 0.05493 -0.003197 -0.02855
0001d0 1c 29 c5 a8 db 9e 8c 2b a9 ad 97 2b 5f 2c 51 2a
       0.03992 -0.03726 -0.006695 0.05896 -0.08844 0.0593 0.0683 0.04935
0001e0 13 2a be 2b 30 a9 60 22 50 a6 cd a5 bd 2d 7b 2a
       0.04745 0.0605 -0.04053 0.01245 -0.02466 -0.02266 0.08966 0.05063
0001f0 64 a2 f9 9a e6 21 6c 2d 22 29 4a 1c 8b 28 a1 29
       -0.01248 -0.003405 0.01152 0.0847 0.0401 0.00419 0.0355 0.04398

functional_1/dense_1/MatMul;StatefulPartitionedCall/functional_1/dense_1/MatMul f2 [10, 64]
000000 a7 2c fc b2 45 10 aa b3 da b2 38 b1 a1 b5 4a 34
       0.0727 -0.2183 0.000521 -0.2395 -0.2141 -0.1631 -0.3518 0.268
000010 38 30 96 aa c4 b3 d1 ad 27 28 44 2e 6c b4 7f 2e
       0.1318 -0.05145 -0.2427 -0.0909 0.03244 0.0979 -0.2764 0.1015
000020 35 af 97 34 1b 32 6e b4 48 b2 dc 32 9c b1 3a aa
       -0.1126 0.2869 0.1908 -0.2769 -0.1963 0.2144 -0.1753 -0.04865
000030 2f 2d 9a 34 7d b1 cc 34 3d 34 1e a9 34 2e 73 30
       0.081 0.2876 -0.1715 0.2998 0.265 -0.03998 0.0969 0.139
000040 23 2b 89 1e 46 b5 44 34 24 32 e5 b4 3d 35 dc 2c
       0.05576 0.006382 -0.3296 0.2666 0.1919 -0.306 0.3274 0.0759
000050 39 b2 d8 a6 0d b4 2c b5 e2 33 7a ae 08 b4 c4 ac
       -0.1945 -0.02673 -0.2532 -0.3232 0.2463 -0.1012 -0.252 -0.07446
000060 28 b0 4b ac 42 34 46 b3 22 34 dd 2f e6 b4 ec 28
       -0.1299 -0.0671 0.266 -0.2273 0.2583 0.12286 -0.3062 0.03845
000070 e5 2f 09 b4 26 b4 f3 2a 8b 2b 88 2f 06 2f 98 b5
       0.12335 -0.2522 -0.2593 0.0543 0.05893 0.1177 0.10974 -0.3496
000080 15 34 c8 b2 a2 2f 68 27 e0 33 72 a7 9d 30 22 34
       0.2551 -0.2119 0.11926 0.02893 0.2461 -0.02908 0.1442 0.2583
000090 2b 2d 41 28 ba 2e f5 b4 c2 2d a1 b4 0f 32 0b 2f
       0.08075 0.03323 0.1051 -0.3098 0.08997 -0.2893 0.1893 0.11005
0000a0 a6 33 19 34 6c 30 91 b5 26 ab f6 b0 86 2d 58 a8
       0.239 0.256 0.1382 -0.348 -0.05585 -0.155 0.0863 -0.03394
0000b0 b9 b4 c2 b4 68 af ae b3 4f b1 9b af 02 b5 db b4
       -0.2952 -0.2974 -0.1157 -0.24 -0.1659 -0.11884 -0.313 -0.3035
0000c0 4b 2d 69 2f 76 30 0f 30 98 b1 f9 ad e3 b4 63 33
       0.0827 0.1158 0.1394 0.1268 -0.1748 -0.0933 -0.3054 0.2308
0000d0 6b 96 f0 2e 8a 31 30 ad 27 b2 fe b3 38 32 ac 32
       -0.001567 0.1084 0.1731 -0.08105 -0.1923 -0.2498 0.1943 0.2085
0000e0 74 2d 49 31 47 b3 9c 2d 17 ae b0 b5 c9 33 c8 33
       0.0852 0.1652 -0.2274 0.08765 -0.09515 -0.3555 0.2433 0.2432
0000f0 4d b5 45 2e 8b 2c e6 32 91 b3 1a 30 10 31 92 b6
       -0.3313 0.09796 0.071 0.2156 -0.2365 0.1282 0.1582 -0.4106
000100 c7 30 51 30 56 b5 49 34 ae b6 46 b0 88 34 32 33
       0.1493 0.1349 -0.3335 0.2678 -0.4175 -0.1335 0.2832 0.2249
000110 d0 33 5d 2d 6b 9e 62 2d 68 af 39 33 f3 34 4a aa
       0.2441 0.0838 -0.006268 0.0841 -0.1157 0.2257 0.3093 -0.04913
000120 72 b4 bc b1 f9 2a b9 20 24 b5 29 b4 71 16 44 ad
       -0.2778 -0.1792 0.05447 0.009224 -0.3213 -0.26 0.001573 -0.0823
000130 7e 29 bf 31 54 b5 6a 34 11 a0 23 b1 e4 b4 33 ad
       0.0429 0.1796 -0.333 0.276 -0.00794 -0.1605 -0.3057 -0.08124
000140 ac b4 62 34 52 29 0a 2c 84 2f ac 32 c2 b0 07 30
       -0.292 0.274 0.04156 0.0631 0.11743 0.2085 -0.1487 0.1259
000150 99 2f 03 b5 40 34 9a b4 3a b4 8e 33 67 b5 73 24
       0.1187 -0.3132 0.2656 -0.2876 -0.2642 0.2361 -0.3376 0.01738
000160 d0 b4 47 33 d2 2d a1 b1 ab b3 10 af 7a ac 00 30
       -0.3008 0.2274 0.09094 -0.1759 -0.2396 -0.11035 -0.06995 0.125
000170 9a 28 be 31 f0 ae dc 31 1c b1 ee b2 63 a8 c2 26
       0.03595 0.1794 -0.1084 0.1831 -0.1597 -0.2166 -0.03427 0.0264
000180 c3 b5 e1 b0 f0 24 4b 34 d5 ac 22 30 a3 30 6d 2d
       -0.36 -0.1525 0.01929 0.2683 -0.0755 0.1292 0.1449 0.0848
000190 77 2d a2 b0 61 33 3e b4 51 35 f4 b2 77 25 75 b1
       0.0854 -0.1448 0.2306 -0.2651 0.3323 -0.2173 0.02135 -0.1705
0001a0 ff af 55 33 1f b3 41 31 9d b1 d7 b5 6e 34 66 b2
       -0.12494 0.2291 -0.2225 0.1642 -0.1754 -0.365 0.2769 -0.2
0001b0 33 30 a8 26 0d 34 6e 34 30 34 1d b4 45 b4 06 34
       0.1312 0.026 0.2532 0.2769 0.2617 -0.257 -0.2668 0.2515
0001c0 71 b2 45 34 96 2a 10 34 0a 2d fe b4 49 2a 82 31
       -0.2013 0.2668 0.05145 0.254 0.07874 -0.312 0.0491 0.1721
0001d0 36 a5 aa b3 0e 29 a6 34 4d 34 61 34 8d b5 72 af
       -0.02036 -0.2395 0.0395 0.2905 0.2688 0.2737 -0.347 -0.11633
0001e0 c4 a7 67 2c 3f 20 49 b5 57 b4 99 ad 87 b4 2f ad
       -0.03033 0.0688 0.00829 -0.3303 -0.2712 -0.08746 -0.283 -0.081
0001f0 9c b4 09 2d ea 33 1e a0 69 b2 ce ac ae 34 f6 af
       -0.288 0.0787 0.2473 -0.00804 -0.2003 -0.0751 0.2925 -0.1244

functional_1/conv2d/Conv2D;StatefulPartitionedCall/functional_1/conv2d/Conv2D f2 [32, 3, 3, 1]
000000 3e 3e 2e 3c 9e bc 74 b7 e5 bc ae b8 1e bc 9c bd
       1.561 1.045 -1.154 -0.4658 -1.224 -0.585 -1.029 -1.402
000010 26 40 21 b5 b7 bb 31 2c 6f c0 6c 38 db 3d c7 39
       2.074 -0.3206 -0.9644 0.0655 -2.217 0.5527 1.464 0.722
000020 0d 38 16 c0 1f 39 4b bc 18 b5 4d b2 90 b4 6e 2e
       0.5063 -2.043 0.64 -1.073 -0.3184 -0.1969 -0.2852 0.10046
000030 e2 bc 66 2f d0 b6 66 38 97 3e a7 bb 40 3a 9d 3b
       -1.221 0.1156 -0.4258 0.55 1.647 -0.9565 0.7812 0.9517
000040 52 bc 79 ba ec ba 14 bd a6 35 5e bd c4 40 f5 bf
       -1.08 -0.809 -0.865 -1.27 0.353 -1.342 2.383 -1.989
000050 09 33 24 bc 2f 37 0c b9 e6 b4 b7 ba d0 ba be b4
       0.2198 -1.035 0.449 -0.631 -0.3062 -0.8394 -0.8516 -0.2964
000060 c1 2b b3 b0 04 b1 e1 b8 35 31 0a b3 0d b5 25 bf
       0.06058 -0.1469 -0.1567 -0.61 0.1627 -0.22 -0.3157 -1.786
000070 75 3e 83 bf 1c 35 73 b2 03 37 e6 b4 af 40 4f 3e
       1.614 -1.878 0.3193 -0.2015 0.4382 -0.3062 2.342 1.577
000080 ad be 38 c0 0b 38 dd 34 73 2b 56 3b 35 3a 56 b2
       -1.669 -2.11 0.5054 0.304 0.0582 0.917 0.776 -0.198
000090 ae bf be 3f b2 b8 f6 bc 44 b6 00 2e 21 38 05 b7
       -1.92 1.936 -0.587 -1.24 -0.3916 0.09375 0.516 -0.4387
0000a0 7b b8 51 b5 3f 36 17 b4 56 bc 3a 3c b9 bb 4b ba
       -0.56 -0.3323 0.3904 -0.2556 -1.084 1.057 -0.9653 -0.7866
0000b0 88 bb 74 30 c3 bc bf 3c 3c 3c 82 40 fb 26 48 3d
       -0.9414 0.1392 -1.19 1.187 1.059 2.254 0.02727 1.32
0000c0 12 c0 b7 bd 0b b9 8e 38 31 3d 8c bc ae 3e 89 bc
       -2.035 -1.429 -0.6304 0.5693 1.298 -1.137 1.67 -1.134
0000d0 1c b9 55 3d f1 b7 b6 bd 95 c0 63 3f ac b7 16 ba
       -0.6387 1.333 -0.4963 -1.428 -2.291 1.847 -0.4795 -0.7607
0000e0 f9 2d 7f c1 2d 39 4a 41 a7 b4 e4 30 c5 39 8a 40
       0.0933 -2.748 0.647 2.645 -0.2908 0.1528 0.721 2.27
0000f0 22 be 1f 35 20 b8 7e ba dc b9 fc bb 36 35 2d 3f
       -1.533 0.32 -0.5156 -0.8115 -0.7324 -0.998 0.3257 1.794
000100 6b ac fb 2e 39 3d bb bb 69 c0 ac b8 0b bb a8 3c
       -0.06903 0.1091 1.306 -0.9663 -2.205 -0.584 -0.8804 1.164
000110 81 34 22 bd 45 3a 6b 3a ea b5 d3 ba 49 3c 2c 3c
       0.2815 -1.283 0.7837 0.8022 -0.3696 -0.853 1.071 1.043
000120 d8 b8 a2 b8 a4 38 42 b7 ff 2f ec b6 26 b9 3b b7
       -0.6055 -0.579 0.58 -0.4536 0.12494 -0.4326 -0.6436 -0.452
000130 b2 b9 57 bf 7c bd 25 3a 56 3b b2 b2 0c 3f 34 3b
       -0.712 -1.835 -1.371 0.768 0.917 -0.2092 1.762 0.9004
000140 30 3d 11 bc a6 b8 1c 41 06 c2 5e be f9 41 4d 3d
       1.297 -1.017 -0.581 2.555 -3.012 -1.592 2.986 1.325
000150 4b be 52 bf 63 3e 94 bc 29 be f6 40 8b 32 40 b8
       -1.573 -1.83 1.597 -1.145 -1.54 2.48 0.2045 -0.5312
000160 4d 40 42 1a 2f bd 79 b9 dc b7 63 bb 5f bb 39 bb
       2.15 0.003056 -1.296 -0.684 -0.4912 -0.9233 -0.9214 -0.903
000170 08 b8 03 3a a4 30 fd 20 bd 3a 1d bb b6 bd e9 bb
       -0.504 0.7515 0.145 0.00974 0.8423 -0.889 -1.428 -0.989
000180 28 40 f1 bc a2 2e 07 3a d9 3c b6 3c a3 38 b6 b2
       2.078 -1.235 0.10364 0.7534 1.212 1.178 0.5796 -0.2097
000190 c1 39 d0 b6 32 36 46 34 de b9 f8 3d ca 38 d0 3a
       0.719 -0.4258 0.3872 0.267 -0.7334 1.492 0.5986 0.8516
0001a0 42 bf 5a c0 2f bd 37 3d f3 41 87 39 8d 26 14 c1
       -1.814 -2.176 -1.296 1.304 2.975 0.691 0.02559 -2.54
0001b0 78 2f 54 be 59 34 68 3c 0f bc 95 b0 b5 40 1f c2
       0.1167 -1.582 0.2717 1.102 -1.015 -0.1432 2.354 -3.06
0001c0 96 39 fe be 6a 33 0b 40 d3 b0 c7 bc 72 3e d0 bb
       0.698 -1.748 0.2317 2.021 -0.1508 -1.194 1.611 -0.9766
0001d0 a1 bb b1 33 57 af bf 3d ab b9 65 ba 50 c0 0a 3f
       -0.9536 0.2404 -0.1147 1.437 -0.7085 -0.7993 -2.156 1.76
0001e0 7f c0 6a 3f 84 39 bd ba 3e 3b fd 2e 55 38 21 35
       -2.248 1.854 0.6895 -0.8423 0.9053 0.1092 0.5415 0.3206
0001f0 82 3b 51 a0 8a 38 23 34 e1 40 98 3a 28 bf 67 39
       0.9385 -0.00843 0.5674 0.2585 2.44 0.824 -1.789 0.6753

functional_1/conv2d_1/Conv2D;StatefulPartitionedCall/functional_1/conv2d_1/Conv2D f2 [64, 3, 3, 32]
000000 ea a1 72 ab 86 aa 37 ae 8d 25 83 26 36 ae 25 a7
       -0.01155 -0.05817 -0.05096 -0.0971 0.02168 0.02544 -0.09705 -0.02791
000010 51 a8 6b 23 88 28 61 a8 5e 22 ef a8 b7 9e 70 a9
       -0.03372 0.01449 0.0354 -0.0342 0.012436 -0.03854 -0.006557 -0.04248
000020 ef 26 ce ab d8 29 4c ae 2b a7 f2 2c bb 02 b7 28
       0.02708 -0.06097 0.04565 -0.0984 -0.028 0.0773 4.166e-05 0.03683
000030 c9 a7 22 a6 46 aa 12 a7 67 ac 0b 1e 0e 25 00 21
       -0.03041 -0.02396 -0.049 -0.02762 -0.0688 0.0059 0.01974 0.009766
000040 0e ab 00 2a 9b a4 ae ac 4c a3 52 2c 41 0a eb a7
       -0.0551 0.04688 -0.01799 -0.0731 -0.01425 0.0675 0.0001909 -0.03093
000050 23 2c ae 2b d1 ac 81 ac 33 a9 f5 a8 79 27 80 a9
       0.06464 0.06 -0.07526 -0.0704 -0.04062 -0.03873 0.02919 -0.04297
000060 6b 29 27 ad fc 1c d8 2a 76 2b f0 a5 08 28 ee 24
       0.04233 -0.0805 0.004868 0.05347 0.0583 -0.0232 0.0315 0.01926
000070 17 2d 05 ab 52 aa 7d a9 d9 a8 cc ad b7 a5 e2 21
       0.0795 -0.05484 -0.04938 -0.04288 -0.03787 -0.0906 -0.02232 0.01149
000080 e3 a5 fb 27 92 2a 2f 27 fc ab 0f 29 ea 1c 20 a8
       -0.023 0.03117 0.05133 0.02806 -0.06238 0.03952 0.0048 -0.03223
000090 b5 19 e7 9b e9 26 77 1d 50 29 20 ac 98 28 c6 27
       0.002787 -0.003859 0.027 0.005337 0.0415 -0.06445 0.0359 0.03036
0000a0 fc a8 7f a6 7f 2a 8e a8 e3 99 e1 a7 27 ab 45 a9
       -0.03894 -0.02538 0.05075 -0.03558 -0.002874 -0.03078 -0.05588 -0.04117
0000b0 a2 ab 62 2c b0 29 4b 2c bf 27 7f 18 ef 28 32 2e
       -0.05963 0.0685 0.04443 0.0671 0.03026 0.002195 0.03854 0.0968
0000c0 c0 a5 a7 a5 12 1f 5f 10 1f 28 06 a9 8a 9e 13 15
       -0.02246 -0.02208 0.006905 0.0005336 0.0322 -0.03925 -0.006386 0.001239
0000d0 60 27 f3 a7 7d a0 b9 21 6b a6 93 a5 c2 2a ae 23
       0.02881 -0.03105 -0.008766 0.01118 -0.02507 -0.02177 0.0528 0.015
0000e0 f9 28 32 23 92 a5 24 a9 0e 25 0b 21 f1 1c 0f a8
       0.03885 0.01405 -0.02176 -0.04016 0.01974 0.00985 0.004826 -0.0317
0000f0 8f 29 c3 a8 e1 ab 5a a7 9c a1 ca a0 ce 29 ae 18
       0.04343 -0.0372 -0.06155 -0.02872 -0.010956 -0.00935 0.04535 0.002285
000100 d8 aa 7e a9 44 a2 62 aa 30 2b b3 aa 11 25 55 aa
       -0.05347 -0.0429 -0.01224 -0.04987 0.05615 -0.05234 0.01979 -0.04947
000110 0c 8f 58 a9 35 27 91 a0 3f a0 64 22 92 2b 04 a6
       -0.00043 -0.04175 0.02815 -0.00892 -0.00829 0.01248 0.05914 -0.0235
000120 32 2d 6e ab d6 aa dc 28 a3 aa 03 a8 6e 2c d4 ab
       0.0812 -0.05804 -0.0534 0.03796 -0.05185 -0.03134 0.0692 -0.06116
000130 5f 2c 26 a4 5f a5 d6 a6 9c ae 4f ac 92 25 28 27
       0.0683 -0.0162 -0.02098 -0.0267 -0.1033 -0.0673 0.02176 0.02795
000140 60 a8 c9 2c a8 17 82 aa eb a9 19 27 f9 29 4f a6
       -0.03418 0.07477 0.001869 -0.05084 -0.04623 0.02773 0.04666 -0.02464
000150 1e aa 06 29 58 25 98 aa d1 ad fd 2a f6 28 6d 2c
       -0.0478 0.03925 0.02087 -0.0515 -0.0909 0.0546 0.03876 0.06915
000160 3f 2d e6 2b a4 a8 43 26 51 9f 73 24 1e a5 25 ab
       0.082 0.0617 -0.03625 0.02446 -0.007145 0.01738 -0.01999 -0.05582
000170 4b 27 d0 29 ca 2a 34 a3 d4 ab ce a0 0d a4 b9 a9
       0.02849 0.0454 0.05304 -0.01407 -0.06116 -0.009384 -0.01582 -0.0447
000180 40 ab ff 1a ee 2c 44 2c ba a9 15 aa 49 ac 6a 24
       -0.05664 0.003416 0.077 0.06665 -0.04474 -0.04752 -0.06696 0.01724
000190 0f ad 9d ac 23 ab 5a 2b 92 26 17 ae e5 a5 61 a0
       -0.07904 -0.0721 -0.05576 0.05743 0.02567 -0.09515 -0.02303 -0.00855
0001a0 7c a9 7a 2c 90 24 f2 aa 2e ac 64 a9 fa 2c 50 2a
       -0.04285 0.06995 0.01782 -0.05426 -0.0653 -0.0421 0.07776 0.04932
0001b0 ad 2c d0 ab f6 2b 2a 1f 64 27 18 2c 47 2d dc aa
       0.07306 -0.06104 0.0622 0.006996 0.02887 0.06396 0.08246 -0.0536
0001c0 3c ac 43 aa f5 26 50 27 20 a9 69 1e de a4 2c 2b
       -0.06616 -0.04892 0.02718 0.02856 -0.04004 0.00626 -0.01901 0.05603
0001d0 dd 19 73 9f 2e 23 5d 2e e1 a3 a6 25 1c 2b 34 a6
       0.002863 -0.007275 0.01402 0.0994 -0.01539 0.02206 0.05554 -0.02423
0001e0 9a 2b 59 ad 52 a8 f1 9a 7e 22 24 22 35 ae 67 a4
       0.0594 -0.08356 -0.03375 -0.00339 0.01268 0.01199 -0.097 -0.0172
0001f0 67 2e 67 2c 11 98 36 a7 b5 ac de a9 54 2d 9b a5
       0.10004 0.0688 -0.001986 -0.02817 -0.07355 -0.04584 0.08325 -0.0219

functional_1/conv2d_2/Conv2D;StatefulPartitionedCall/functional_1/conv2d_2/Conv2D f2 [128, 3, 3, 64]
000000 48 2c 67 a9 3c ac 03 ac cf 26 ab 26 22 aa 9d 96
       0.0669 -0.0422 -0.06616 -0.0627 0.0266 0.02605 -0.0479 -0.001615
000010 e3 ab 6d ac 88 2c 45 a2 95 2d 43 21 12 29 14 ad
       -0.0616 -0.06915 0.0708 -0.012245 0.0872 0.01028 0.0396 -0.07935
000020 65 9f f3 2c 72 a0 ab aa 84 a7 2d ab 42 0e ce a7
       -0.00722 0.07733 -0.00868 -0.0521 -0.02936 -0.05606 0.000382 -0.03049
000030 55 28 88 28 4e 20 03 2c 41 29 68 2c 1c 1f 8f 24
       0.03384 0.0354 0.00841 0.0627 0.04105 0.06885 0.006943 0.0178
000040 4e 9d 26 2a c3 ad 0b ac 58 b0 a8 29 b9 21 45 21
       -0.00518 0.04803 -0.09 -0.0632 -0.1357 0.0442 0.01118 0.01029
000050 46 2d d8 a7 d7 2c 2b ae 91 a8 62 2c 1a ad d6 2a
       0.0824 -0.03064 0.0756 -0.0964 -0.03568 0.0685 -0.0797 0.0534
000060 61 9c e4 aa 5c ae b2 2a d9 9d 84 a9 e9 21 e0 26
       -0.004276 -0.05383 -0.09937 0.0523 -0.00571 -0.0431 0.01154 0.02686
000070 ec a5 eb 23 7e aa 48 2c 4c a5 f0 a4 79 2b f9 27
       -0.02313 0.015465 -0.05072 0.0669 -0.02069 -0.01929 0.05838 0.03114
000080 e1 2c 18 a4 68 19 13 27 f4 21 61 95 1a ad ac 29
       0.07623 -0.01599 0.00264 0.02763 0.01163 -0.001313 -0.0797 0.0443
000090 4c 29 5f a8 14 29 2b a9 7d a7 32 27 af 0b 23 b0
       0.04138 -0.03415 0.03967 -0.04037 -0.02925 0.0281 0.0002345 -0.1293
0000a0 89 ad 6e a5 c7 28 2d 2c 51 aa d1 a8 94 ad 0b 1f
       -0.0865 -0.02121 0.03732 0.06525 -0.04935 -0.03763 -0.08716 0.006878
0000b0 b1 2a c0 a0 24 ae d6 2e 56 2c 48 aa 8f 29 2a 9b
       0.05228 -0.00928 -0.09595 0.1068 0.06775 -0.04907 0.04343 -0.003498
0000c0 18 2a 9d ac 3a 9f 77 a7 c1 28 90 2f df ac ca 28
       0.0476 -0.0721 -0.007057 -0.02916 0.03714 0.11816 -0.0761 0.0374
0000d0 87 29 0e af 2e 99 2e 27 18 28 a2 2c 2e a6 94 ac
       0.04318 -0.1102 -0.00253 0.02805 0.03198 0.0724 -0.02414 -0.07153
0000e0 b9 9d 09 2e 1c 28 aa 2a 75 2e e1 20 ff 28 c4 25
       -0.00559 0.0943 0.0321 0.05206 0.1009 0.00953 0.03903 0.02252
0000f0 36 a3 8b 2e e3 a7 d1 a0 dc a9 51 2d 08 2b a3 a5
       -0.014084 0.10223 -0.0308 -0.00941 -0.04578 0.08307 0.05493 -0.02202
000100 1e ad 64 af bb 9c 94 27 ad 19 af 2b e5 2f 19 23
       -0.07996 -0.1155 -0.00462 0.0296 0.002771 0.06003 0.12335 0.01386
000110 fa 27 83 a9 e5 a7 46 2d 0e a4 33 22 54 9d eb ad
       0.03116 -0.04306 -0.03084 0.0824 -0.01584 0.01211 -0.005203 -0.09247
000120 59 a8 c1 2e 17 a3 ef 28 79 21 ad 23 2f ac 31 11
       -0.03397 0.1055 -0.01385 0.03854 0.01069 0.01499 -0.06537 0.0006337
000130 fd 9a 8d ac 9c 2b d7 98 ea 2a 8a ab 94 2d 96 24
       -0.003412 -0.0711 0.05945 -0.002363 0.05402 -0.0589 0.08716 0.01791
000140 9b 2e 22 a5 4b 2d a5 ad 90 2b 7d a8 d9 aa d2 29
       0.1032 -0.02005 0.0827 -0.0882 0.05908 -0.03506 -0.0535 0.04547
000150 2b b0 1a 2c d3 2a 16 1b 94 ae 6a 2a c2 25 b1 28
       -0.1302 0.0641 0.0533 0.00346 -0.1028 0.0501 0.02249 0.03665
000160 c5 26 9b 2d bc 9e 81 a4 c7 a8 a1 aa 5b aa 53 ac
       0.02644 0.0876 -0.006577 -0.0176 -0.03732 -0.0518 -0.04965 -0.06757
000170 ac 2c 83 23 0c a9 de a3 b5 25 06 2a 03 26 21 21
       0.073 0.01467 -0.03943 -0.015366 0.0223 0.04706 0.02348 0.01002
000180 34 a3 40 27 e7 a6 18 26 01 2c 4c 2d 2f 2c 68 ac
       -0.01407 0.02832 -0.02696 0.0238 0.06256 0.08276 0.06537 -0.06885
000190 11 ab b0 29 5b 1b 62 a8 38 aa da 2a b7 a9 26 28
       -0.0552 0.04443 0.003592 -0.03424 -0.04858 0.05353 -0.04465 0.0324
0001a0 b7 ab db 2a da 25 b1 ac 82 24 bb a0 ca a3 6d 25
       -0.06027 0.05356 0.02286 -0.0733 0.01761 -0.00924 -0.01521 0.0212
0001b0 36 aa 68 ab b3 ae 88 a9 fc a7 e1 a9 01 9e 4c ad
       -0.04852 -0.05786 -0.1047 -0.0432 -0.03119 -0.04593 -0.005863 -0.08276
0001c0 2d 2a 70 9c 76 a5 84 2b 40 a8 a1 ab 63 2a cd 29
       0.04825 -0.004333 -0.02133 0.05872 -0.0332 -0.0596 0.0499 0.04532
0001d0 30 27 32 ab a4 a8 e7 2c 2e 21 dd 2d e2 ac a2 27
       0.02808 -0.0562 -0.03625 0.0766 0.01012 0.0916 -0.0763 0.02982
0001e0 c8 ad ec 28 1d 2c ca 28 34 ab 84 2b 6f ac f4 a0
       -0.09033 0.03845 0.0643 0.0374 -0.05627 0.05872 -0.0693 -0.009674
0001f0 f1 21 22 2c ed ab a4 ae bb a9 53 a9 12 ad 83 9a
       0.011604 0.0646 -0.06192 -0.10376 -0.04477 -0.0416 -0.0792 -0.00318
